Model/Iris_model.pth (torch_old, 11824 bytes, 6 tensors)

weight f4 [3, 4]
-0.26957664 -0.20461372 0.38158655 0.18066564 -0.44610316 0.34488064 0.0067700804 0.30891278
-0.29322588 -0.17890994 0.692366 0.6524059
00000000: f305 8abe 4286 51be 505f c33e 6a00 393e
00000010: a267 e4be 3294 b03e 8dd7 dd3b d129 9e3e
00000020: b421 96be 2b34 37be e63e 313f 1304 273f

bias f4 [3]
-0.29885957 -0.11585826 -0.6231472
00000000: 1f04 99be 1847 edbd 9386 1fbf

weight f4 [3]
0.108280845 0.023885878 0.98837185
00000000: 59c2 dd3d 51ac c33c f005 7d3f

bias f4 [3]
-0.02313313 -0.00081997656 -0.3349324
00000000: b181 bdbc b2f3 56ba 427c abbe

running_mean f4 [3]
-0.06611459 -0.12756857 0.27155998
00000000: 1667 87bd 56a1 02be e909 8b3e

running_var f4 [3]
0.94927603 0.9055825 0.9935488
00000000: c103 733f 41d4 673f 3759 7e3f
